2019-07-08 21:06:01,004 14864 Namespace(Adadelta=False, Adagrad=True, Adam=False, T_step=5, batch_size=25, child_sum=False, dropout=0.5, epochs=100, gpu=0, graph_transformer=False, h_size=64, log_every=5, logfile='./tmp.log', lr=0.05, modelId='1562591161.0040529', seed=41, tree_lstm=False, weight_decay=0.0001, x_size=64)
2019-07-08 21:06:14,116 14864 GraphTransformer(
  (embedding): Embedding(19536, 64)
  (dropout): Dropout(p=0.5)
  (linear): Linear(in_features=64, out_features=5, bias=True)
  (cell): TransformerCell(
    (attnLayer1): MultiHeadedAttention(
      (linears): ModuleList(
        (0): Linear(in_features=64, out_features=64, bias=True)
        (1): Linear(in_features=64, out_features=64, bias=True)
        (2): Linear(in_features=64, out_features=64, bias=True)
        (3): Linear(in_features=64, out_features=64, bias=True)
      )
      (dropout): Dropout(p=0.1)
    )
    (attnLayer2): MultiHeadedAttention(
      (linears): ModuleList(
        (0): Linear(in_features=64, out_features=64, bias=True)
        (1): Linear(in_features=64, out_features=64, bias=True)
        (2): Linear(in_features=64, out_features=64, bias=True)
        (3): Linear(in_features=64, out_features=64, bias=True)
      )
      (dropout): Dropout(p=0.1)
    )
    (layerNorm1): LayerNorm()
    (layerNorm2): LayerNorm()
  )
)
2019-07-08 21:15:26,345 14864 Epoch 00000 | Step 00005 | Loss 1030.3396 | Acc 0.7272 | Root Acc 0.2400 | Time(s) 89.8467
2019-07-08 21:22:43,036 14864 Epoch 00000 | Step 00010 | Loss 974.5830 | Acc 0.6815 | Root Acc 0.2800 | Time(s) 88.2763
2019-07-08 21:30:31,903 14864 Epoch 00000 | Step 00015 | Loss 993.8466 | Acc 0.6530 | Root Acc 0.2000 | Time(s) 90.3890
2019-07-08 21:37:59,932 14864 Epoch 00000 | Step 00020 | Loss 1156.7793 | Acc 0.6549 | Root Acc 0.2400 | Time(s) 90.1703
…
