2019-07-07 17:31:59,663 7290 Namespace(Adadelta=False, Adagrad=False, Adam=False, T_step=5, batch_size=25, child_sum=False, dropout=0.5, epochs=100, gpu=0, graph_transformer=False, h_size=64, log_every=5, logfile='./tmp.log', lr=0.05, modelId='1562491919.6628027', seed=41, tree_lstm=False, weight_decay=0.0001, x_size=64)
2019-07-07 17:32:12,509 7290 GraphTransformer(
  (embedding): Embedding(19536, 64)
  (dropout): Dropout(p=0.5)
  (linear): Linear(in_features=64, out_features=5, bias=True)
  (cell): TransformerCell(
    (attnLayer1): MultiHeadedAttention(
      (linears): ModuleList(
        (0): Linear(in_features=64, out_features=64, bias=True)
        (1): Linear(in_features=64, out_features=64, bias=True)
        (2): Linear(in_features=64, out_features=64, bias=True)
        (3): Linear(in_features=64, out_features=64, bias=True)
      )
      (dropout): Dropout(p=0.1)
    )
    (attnLayer2): MultiHeadedAttention(
      (linears): ModuleList(
        (0): Linear(in_features=64, out_features=64, bias=True)
        (1): Linear(in_features=64, out_features=64, bias=True)
        (2): Linear(in_features=64, out_features=64, bias=True)
        (3): Linear(in_features=64, out_features=64, bias=True)
      )
      (dropout): Dropout(p=0.1)
    )
    (layerNorm1): LayerNorm()
    (layerNorm2): LayerNorm()
  )
)
2019-07-07 17:33:24,942 7290 Epoch 00000 | Step 00005 | Loss 1018.9468 | Acc 0.6308 | Root Acc 0.2400 | Time(s) 12.2064
2019-07-07 17:34:23,263 7290 Epoch 00000 | Step 00010 | Loss 1127.7294 | Acc 0.6205 | Root Acc 0.3200 | Time(s) 11.8653
2019-07-07 17:35:21,991 7290 Epoch 00000 | Step 00015 | Loss 1045.2068 | Acc 0.6205 | Root Acc 0.2000 | Time(s) 11.8178
2019-07-07 17:36:19,379 7290 Epoch 00000 | Step 00020 | Loss 1225.5093 | Acc 0.6739 | Root Acc 0.2400 | Time(s) 11.7222
…
