2019-07-08 08:22:32,668 720 Namespace(Adadelta=False, Adagrad=True, Adam=False, T_step=5, batch_size=25, child_sum=False, dropout=0.5, epochs=100, gpu=0, graph_transformer=False, h_size=64, log_every=5, logfile='./tmp.log', lr=0.05, modelId='1562545352.668083', seed=41, tree_lstm=False, weight_decay=0.0001, x_size=64)
2019-07-08 08:22:45,714 720 GraphTransformer(
  (embedding): Embedding(19536, 64)
  (dropout): Dropout(p=0.5)
  (linear): Linear(in_features=64, out_features=5, bias=True)
  (cell): TransformerCell(
    (attnLayer1): MultiHeadedAttention(
      (linears): ModuleList(
        (0): Linear(in_features=64, out_features=64, bias=True)
        (1): Linear(in_features=64, out_features=64, bias=True)
        (2): Linear(in_features=64, out_features=64, bias=True)
        (3): Linear(in_features=64, out_features=64, bias=True)
      )
      (dropout): Dropout(p=0.1)
    )
    (attnLayer2): MultiHeadedAttention(
      (linears): ModuleList(
        (0): Linear(in_features=64, out_features=64, bias=True)
        (1): Linear(in_features=64, out_features=64, bias=True)
        (2): Linear(in_features=64, out_features=64, bias=True)
        (3): Linear(in_features=64, out_features=64, bias=True)
      )
      (dropout): Dropout(p=0.1)
    )
    (layerNorm1): LayerNorm()
    (layerNorm2): LayerNorm()
  )
)
2019-07-08 08:24:04,086 720 Epoch 00000 | Step 00005 | Loss 986.8862 | Acc 0.5920 | Root Acc 0.3200 | Time(s) 13.0699
2019-07-08 08:25:10,189 720 Epoch 00000 | Step 00010 | Loss 1075.2086 | Acc 0.6701 | Root Acc 0.2800 | Time(s) 13.1615
2019-07-08 08:26:15,946 720 Epoch 00000 | Step 00015 | Loss 984.5938 | Acc 0.6670 | Root Acc 0.1600 | Time(s) 13.1561
2019-07-08 08:27:21,121 720 Epoch 00000 | Step 00020 | Loss 1194.6858 | Acc 0.6676 | Root Acc 0.2000 | Time(s) 13.1213
…
