2019-07-15 22:01:29,147 3063 Namespace(Adadelta=False, Adagrad=True, Adam=False, T_step=5, batch_size=25, child_sum=False, dropout=0.5, epochs=100, gpu=0, graph_transformer=False, h_size=256, log_every=5, logfile='./tmp.log', lr=0.05, modelId='1563199289.1469193', seed=41, tree_lstm=False, weight_decay=0.0001, x_size=256)
2019-07-15 22:01:42,259 3063 GraphTransformer(
  (embedding): Embedding(19536, 256)
  (dropout): Dropout(p=0.5)
  (linear): Linear(in_features=512, out_features=5, bias=True)
  (cell): TransformerCell(
    (attnLayer1): MultiHeadedAttention(
      (linears): ModuleList(
        (0): Linear(in_features=256, out_features=256, bias=True)
        (1): Linear(in_features=256, out_features=256, bias=True)
        (2): Linear(in_features=256, out_features=256, bias=True)
        (3): Linear(in_features=256, out_features=256, bias=True)
      )
      (dropout): Dropout(p=0.1)
    )
    (attnLayer2): MultiHeadedAttention(
      (linears): ModuleList(
        (0): Linear(in_features=256, out_features=256, bias=True)
        (1): Linear(in_features=256, out_features=256, bias=True)
        (2): Linear(in_features=256, out_features=256, bias=True)
        (3): Linear(in_features=256, out_features=256, bias=True)
      )
      (dropout): Dropout(p=0.1)
    )
    (layerNorm1): LayerNorm()
    (layerNorm2): LayerNorm()
  )
)
2019-07-15 22:09:47,246 3063 Epoch 00000 | Step 00005 | Loss 333.9659 | Acc 0.2800 | Root Acc 0.2800 | Time(s) 76.0256
2019-07-15 22:16:13,950 3063 Epoch 00000 | Step 00010 | Loss 156.0333 | Acc 0.1200 | Root Acc 0.1200 | Time(s) 76.8460
2019-07-15 22:22:38,531 3063 Epoch 00000 | Step 00015 | Loss 112.2649 | Acc 0.1600 | Root Acc 0.1600 | Time(s) 76.8720
2019-07-15 22:28:45,478 3063 Epoch 00000 | Step 00020 | Loss 55.1196 | Acc 0.2400 | Root Acc 0.2400 | Time(s) 75.9039
…
